…
snapshot_prefix: "/home/caohao/SegNet/Models/Training/segnet_basic"
solver_mode: CPU
net: "/home/caohao/SegNet/Models/segnet_basic_train.prototxt"
test_initialization: false
I0524 19:43:44.983078 35088 solver.cpp:70] Creating training net from net file: /home/caohao/SegNet/Models/segnet_basic_train.prototxt
I0524 19:43:44.983654 35088 net.cpp:42] Initializing net from parameters: 
name: "segnet"
state {
  phase: TRAIN
}
layer {
  name: "data"
  type: "DenseImageData"
  top: "data"
  top: "label"
  dense_image_data_param {
    source: "/home/caohao/SegNet/CamVid/train.txt"
    batch_size: 4
    shuffle: false
  }
}
layer {
  name: "norm"
  type: "LRN"
  bottom: "data"
  top: "norm"
  lrn_param {
    local_size: 5
    alpha: 0.0001
    beta: 0.75
  }
}
layer {
  name: "conv1"
  type: "Convolution"
  bottom: "norm"
  top: "conv1"
  param {
    lr_mult: 1
    decay_mult: 1
  }
  param {
    lr_mult: 2
    decay_mult: 0
  }
  convolution_param {
    num_output: 64
    pad: 3
    kernel_size: 7
    weight_filler {
      type: "msra"
    }
    bias_filler {
      type: "constant"
    }
  }
}
layer {
  name: "conv1_bn"
  type: "BN"
  bottom: "conv1"
  top: "conv1"
  bn_param {
    scale_filler {
      type: "constant"
      value: 1
    }
    shift_filler {
      type: "constant"
      value: 0.001
    }
  }
}
layer {
  name: "relu1"
  type: "ReLU"
  bottom: "conv1"
  top: "conv1"
}
layer {
  name: "pool1"
  type: "Pooling"
  bottom: "conv1"
  top: "pool1"
  top: "pool1_mask"
  pooling_param {
    pool: MAX
    kernel_size: 2
    stride: 2
  }
}
layer {
  name: "conv2"
  type: "Convolution"
  bottom: "pool1"
  top: "conv2"
  param {
    lr_mult: 1
    decay_mult: 1
  }
  param {
    lr_mult: 2
    decay_mult: 0
  }
  convolution_param {
    num_output: 64
    pad: 3
    kernel_size: 7
    weight_filler {
      type: "msra"
    }
    bias_filler {
      type: "constant"
    }
  }
}
layer {
  name: "conv2_bn"
  type: "BN"
  bottom: "conv2"
  top: "conv2"
  bn_param {
    scale_filler {
      type: "constant"
      value: 1
    }
    shift_filler {
      type: "constant"
      value: 0.001
    }
  }
}
layer {
  name: "relu2"
  type: "ReLU"
  bottom: "conv2"
  top: "conv2"
}
layer {
  name: "pool2"
  type: "Pooling"
  bottom: "conv2"
  top: "pool2"
  top: "pool2_mask"
  pooling_param {
    pool: MAX
    kernel_size: 2
    stride: 2
  }
}
layer {
  name: "conv3"
  type: "Convolution"
  bottom: "pool2"
  top: "conv3"
  param {
    lr_mult: 1
    decay_mult: 1
  }
  param {
    lr_mult: 2
    decay_mult: 0
  }
  convolution_param {
    num_output: 64
    pad: 3
    kernel_size: 7
    weight_filler {
      type: "msra"
    }
    bias_filler {
      type: "constant"
    }
  }
}
layer {
  name: "conv3_bn"
  type: "BN"
  bottom: "conv3"
  top: "conv3"
  bn_param {
    scale_filler {
      type: "constant"
      value: 1
    }
    shift_filler {
      type: "constant"
      value: 0.001
    }
  }
}
layer {
  name: "relu3"
  type: "ReLU"
  bottom: "conv3"
  top: "conv3"
}
layer {
  name: "pool3"
  type: "Pooling"
  bottom: "conv3"
  top: "pool3"
  top: "pool3_mask"
  pooling_param {
    pool: MAX
    kernel_size: 2
    stride: 2
  }
}
layer {
  name: "conv4"
  type: "Convolution"
  bottom: "pool3"
  top: "conv4"
  param {
    lr_mult: 1
    decay_mult: 1
  }
  param {
    lr_mult: 2
    decay_mult: 0
  }
  convolution_param {
    num_output: 64
    pad: 3
    kernel_size: 7
    weight_filler {
      type: "msra"
    }
    bias_filler {
      type: "constant"
    }
  }
}
layer {
  name: "conv4_bn"
  type: "BN"
  bottom: "conv4"
  top: "conv4"
  bn_param {
    scale_filler {
      type: "constant"
      value: 1
    }
    shift_filler {
      type: "constant"
      value: 0.001
    }
  }
}
layer {
  name: "relu4"
  type: "ReLU"
  bottom: "conv4"
  top: "conv4"
}
layer {
  name: "pool4"
  type: "Pooling"
  bottom: "conv4"
  top: "pool4"
  top: "pool4_mask"
  pooling_param {
    pool: MAX
    kernel_size: 2
    stride: 2
  }
}
layer {
  name: "upsample4"
  type: "Upsample"
  bottom: "pool4"
  bottom: "pool4_mask"
  top: "upsample4"
  upsample_param {
    scale: 2
    pad_out_h: true
    upsample_h: 64
    upsample_w: 64
  }
}
layer {
  name: "conv_decode4"
  type: "Convolution"
  bottom: "upsample4"
  top: "conv_decode4"
  param {
    lr_mult: 1
    decay_mult: 1
  }
  param {
    lr_mult: 2
    decay_mult: 0
  }
  convolution_param {
    num_output: 64
    pad: 3
    kernel_size: 7
    weight_filler {
      type: "msra"
    }
    bias_filler {
      type: "constant"
    }
  }
}
layer {
  name: "conv_decode4_bn"
  type: "BN"
  bottom: "conv_decode4"
  top: "conv_decode4"
  bn_param {
    scale_filler {
      type: "constant"
      value: 1
    }
    shift_filler {
      type: "constant"
      value: 0.001
    }
  }
}
layer {
  name: "upsample3"
  type: "Upsample"
  bottom: "conv_decode4"
  bottom: "pool3_mask"
  top: "upsample3"
  upsample_param {
    scale: 2
  }
}
layer {
  name: "conv_decode3"
  type: "Convolution"
  bottom: "upsample3"
  top: "conv_decode3"
  param {
    lr_mult: 1
    decay_mult: 1
  }
  param {
    lr_mult: 2
    decay_mult: 0
  }
  convolution_param {
    num_output: 64
    pad: 3
    kernel_size: 7
    weight_filler {
      type: "msra"
    }
    bias_filler {
      type: "constant"
    }
  }
}
layer {
  name: "conv_decode3_bn"
  type: "BN"
  bottom: "conv_decode3"
  top: "conv_decode3"
  bn_param {
    scale_filler {
      type: "constant"
      value: 1
    }
    shift_filler {
      type: "constant"
      value: 0.001
    }
  }
}
layer {
  name: "upsample2"
  type: "Upsample"
  bottom: "conv_decode3"
  bottom: "pool2_mask"
  top: "upsample2"
  upsample_param {
    scale: 2
  }
}
layer {
  name: "conv_decode2"
  type: "Convolution"
  bottom: "upsample2"
  top: "conv_decode2"
  param {
    lr_mult: 1
    decay_mult: 1
  }
  param {
    lr_mult: 2
    decay_mult: 0
  }
  convolution_param {
    num_output: 64
    pad: 3
    kernel_size: 7
    weight_filler {
      type: "msra"
    }
    bias_filler {
      type: "constant"
    }
  }
}
layer {
  name: "conv_decode2_bn"
  type: "BN"
  bottom: "conv_decode2"
  top: "conv_decode2"
  bn_param {
    scale_filler {
      type: "constant"
      value: 1
    }
    shift_filler {
      type: "constant"
      value: 0.001
    }
  }
}
layer {
  name: "upsample1"
  type: "Upsample"
  bottom: "conv_decode2"
  bottom: "pool1_mask"
  top: "upsample1"
  upsample_param {
    scale: 2
  }
}
layer {
  name: "conv_decode1"
  type: "Convolution"
  bottom: "upsample1"
  top: "conv_decode1"
  param {
    lr_mult: 1
    decay_mult: 1
  }
  param {
    lr_mult: 2
    decay_mult: 0
  }
  convolution_param {
    num_output: 64
    pad: 3
    kernel_size: 7
    weight_filler {
      type: "msra"
    }
    bias_filler {
      type: "constant"
    }
  }
}
layer {
  name: "conv_decode1_bn"
  type: "BN"
  bottom: "conv_decode1"
  top: "conv_decode1"
  bn_param {
    scale_filler {
      type: "constant"
      value: 1
    }
    shift_filler {
      type: "constant"
      value: 0.001
    }
  }
}
layer {
  name: "conv_classifier"
  type: "Convolution"
  bottom: "conv_decode1"
  top: "conv_classifier"
  param {
    lr_mult: 1
    decay_mult: 1
  }
  param {
    lr_mult: 2
    decay_mult: 0
  }
  convolution_param {
    num_output: 2
    kernel_size: 1
    weight_filler {
      type: "msra"
    }
    bias_filler {
      type: "constant"
    }
  }
}
layer {
  name: "loss"
  type: "SoftmaxWithLoss"
  bottom: "conv_classifier"
  bottom: "label"
  top: "loss"
  loss_weight: 1
  softmax_param {
    engine: CAFFE
  }
}
layer {
  name: "accuracy"
  type: "Accuracy"
  bottom: "conv_classifier"
  bottom: "label"
  top: "accuracy"
  top: "per_class_accuracy"
}
I0524 19:43:44.983858 35088 layer_factory.hpp:74] Creating layer data
I0524 19:43:44.983886 35088 net.cpp:90] Creating Layer data
I0524 19:43:44.983894 35088 net.cpp:368] data -> data
I0524 19:43:44.983927 35088 net.cpp:368] data -> label
I0524 19:43:44.983938 35088 net.cpp:120] Setting up data
I0524 19:43:44.983947 35088 dense_image_data_layer.cpp:41] Opening file /home/caohao/SegNet/CamVid/train.txt
I0524 19:43:44.984066 35088 dense_image_data_layer.cpp:56] A total of 80 examples.
I0524 19:43:44.987238 35088 dense_image_data_layer.cpp:109] output data size: 4,3,512,512
I0524 19:43:44.987371 35088 net.cpp:127] Top shape: 4 3 512 512 (3145728)
I0524 19:43:44.987385 35088 net.cpp:127] Top shape: 4 1 512 512 (1048576)
I0524 19:43:44.987390 35088 layer_factory.hpp:74] Creating layer label_data_1_split
I0524 19:43:44.987421 35088 net.cpp:90] Creating Layer label_data_1_split
I0524 19:43:44.987429 35088 net.cpp:410] label_data_1_split <- label
I0524 19:43:44.987442 35088 net.cpp:368] label_data_1_split -> label_data_1_split_0
I0524 19:43:44.987462 35088 net.cpp:368] label_data_1_split -> label_data_1_split_1
I0524 19:43:44.987473 35088 net.cpp:120] Setting up label_data_1_split
I0524 19:43:44.987484 35088 net.cpp:127] Top shape: 4 1 512 512 (1048576)
I0524 19:43:44.987491 35088 net.cpp:127] Top shape: 4 1 512 512 (1048576)
I0524 19:43:44.987500 35088 layer_factory.hpp:74] Creating layer norm
I0524 19:43:44.987510 35088 net.cpp:90] Creating Layer norm
I0524 19:43:44.987517 35088 net.cpp:410] norm <- data
I0524 19:43:44.987530 35088 net.cpp:368] norm -> norm
I0524 19:43:44.987540 35088 net.cpp:120] Setting up norm
I0524 19:43:44.987556 35088 net.cpp:127] Top shape: 4 3 512 512 (3145728)
I0524 19:43:44.987562 35088 layer_factory.hpp:74] Creating layer conv1
I0524 19:43:44.987571 35088 net.cpp:90] Creating Layer conv1
I0524 19:43:44.987577 35088 net.cpp:410] conv1 <- norm
I0524 19:43:44.987586 35088 net.cpp:368] conv1 -> conv1
I0524 19:43:44.987597 35088 net.cpp:120] Setting up conv1
I0524 19:43:44.988476 35088 net.cpp:127] Top shape: 4 64 512 512 (67108864)
I0524 19:43:44.988497 35088 layer_factory.hpp:74] Creating layer conv1_bn
I0524 19:43:44.988508 35088 net.cpp:90] Creating Layer conv1_bn
I0524 19:43:44.988514 35088 net.cpp:410] conv1_bn <- conv1
I0524 19:43:44.988526 35088 net.cpp:357] conv1_bn -> conv1 (in-place)
I0524 19:43:44.988544 35088 net.cpp:120] Setting up conv1_bn
I0524 19:43:44.989279 35088 net.cpp:127] Top shape: 4 64 512 512 (67108864)
I0524 19:43:44.989292 35088 layer_factory.hpp:74] Creating layer relu1
I0524 19:43:44.989302 35088 net.cpp:90] Creating Layer relu1
I0524 19:43:44.989306 35088 net.cpp:410] relu1 <- conv1
I0524 19:43:44.989312 35088 net.cpp:357] relu1 -> conv1 (in-place)
I0524 19:43:44.989326 35088 net.cpp:120] Setting up relu1
I0524 19:43:44.989334 35088 net.cpp:127] Top shape: 4 64 512 512 (67108864)
I0524 19:43:44.989341 35088 layer_factory.hpp:74] Creating layer pool1
I0524 19:43:44.989351 35088 net.cpp:90] Creating Layer pool1
I0524 19:43:44.989361 35088 net.cpp:410] pool1 <- conv1
I0524 19:43:44.989367 35088 net.cpp:368] pool1 -> pool1
I0524 19:43:44.989377 35088 net.cpp:368] pool1 -> pool1_mask
I0524 19:43:44.989387 35088 net.cpp:120] Setting up pool1
I0524 19:43:44.989404 35088 net.cpp:127] Top shape: 4 64 256 256 (16777216)
I0524 19:43:44.989413 35088 net.cpp:127] Top shape: 4 64 256 256 (16777216)
I0524 19:43:44.989424 35088 layer_factory.hpp:74] Creating layer conv2
I0524 19:43:44.989431 35088 net.cpp:90] Creating Layer conv2
I0524 19:43:44.989436 35088 net.cpp:410] conv2 <- pool1
I0524 19:43:44.989450 35088 net.cpp:368] conv2 -> conv2
I0524 19:43:44.989466 35088 net.cpp:120] Setting up conv2
I0524 19:43:44.992535 35088 net.cpp:127] Top shape: 4 64 256 256 (16777216)
I0524 19:43:44.992552 35088 layer_factory.hpp:74] Creating layer conv2_bn
I0524 19:43:44.992564 35088 net.cpp:90] Creating Layer conv2_bn
I0524 19:43:44.992569 35088 net.cpp:410] conv2_bn <- conv2
I0524 19:43:44.992576 35088 net.cpp:357] conv2_bn -> conv2 (in-place)
I0524 19:43:44.992593 35088 net.cpp:120] Setting up conv2_bn
I0524 19:43:44.992810 35088 net.cpp:127] Top shape: 4 64 256 256 (16777216)
I0524 19:43:44.992823 35088 layer_factory.hpp:74] Creating layer relu2
I0524 19:43:44.992830 35088 net.cpp:90] Creating Layer relu2
I0524 19:43:44.992847 35088 net.cpp:410] relu2 <- conv2
I0524 19:43:44.992866 35088 net.cpp:357] relu2 -> conv2 (in-place)
I0524 19:43:44.992874 35088 net.cpp:120] Setting up relu2
I0524 19:43:44.992880 35088 net.cpp:127] Top shape: 4 64 256 256 (16777216)
I0524 19:43:44.992888 35088 layer_factory.hpp:74] Creating layer pool2
I0524 19:43:44.992897 35088 net.cpp:90] Creating Layer pool2
I0524 19:43:44.992902 35088 net.cpp:410] pool2 <- conv2
I0524 19:43:44.992913 35088 net.cpp:368] pool2 -> pool2
I0524 19:43:44.992923 35088 net.cpp:368] pool2 -> pool2_mask
I0524 19:43:44.992936 35088 net.cpp:120] Setting up pool2
I0524 19:43:44.992952 35088 net.cpp:127] Top shape: 4 64 128 128 (4194304)
I0524 19:43:44.992960 35088 net.cpp:127] Top shape: 4 64 128 128 (4194304)
I0524 19:43:44.992966 35088 layer_factory.hpp:74] Creating layer conv3
I0524 19:43:44.992974 35088 net.cpp:90] Creating Layer conv3
I0524 19:43:44.992981 35088 net.cpp:410] conv3 <- pool2
I0524 19:43:44.992995 35088 net.cpp:368] conv3 -> conv3
I0524 19:43:44.993005 35088 net.cpp:120] Setting up conv3
I0524 19:43:44.995741 35088 net.cpp:127] Top shape: 4 64 128 128 (4194304)
I0524 19:43:44.995759 35088 layer_factory.hpp:74] Creating layer conv3_bn
I0524 19:43:44.995769 35088 net.cpp:90] Creating Layer conv3_bn
I0524 19:43:44.995775 35088 net.cpp:410] conv3_bn <- conv3
I0524 19:43:44.995781 35088 net.cpp:357] conv3_bn -> conv3 (in-place)
I0524 19:43:44.995789 35088 net.cpp:120] Setting up conv3_bn
I0524 19:43:44.995869 35088 net.cpp:127] Top shape: 4 64 128 128 (4194304)
I0524 19:43:44.995882 35088 layer_factory.hpp:74] Creating layer relu3
I0524 19:43:44.995890 35088 net.cpp:90] Creating Layer relu3
I0524 19:43:44.995895 35088 net.cpp:410] relu3 <- conv3
I0524 19:43:44.995903 35088 net.cpp:357] relu3 -> conv3 (in-place)
I0524 19:43:44.995918 35088 net.cpp:120] Setting up relu3
I0524 19:43:44.995924 35088 net.cpp:127] Top shape: 4 64 128 128 (4194304)
I0524 19:43:44.995931 35088 layer_factory.hpp:74] Creating layer pool3
I0524 19:43:44.995939 35088 net.cpp:90] Creating Layer pool3
I0524 19:43:44.995944 35088 net.cpp:410] pool3 <- conv3
I0524 19:43:44.995957 35088 net.cpp:368] pool3 -> pool3
I0524 19:43:44.995966 35088 net.cpp:368] pool3 -> pool3_mask
I0524 19:43:44.995980 35088 net.cpp:120] Setting up pool3
I0524 19:43:44.995990 35088 net.cpp:127] Top shape: 4 64 64 64 (1048576)
I0524 19:43:44.996000 35088 net.cpp:127] Top shape: 4 64 64 64 (1048576)
I0524 19:43:44.996004 35088 layer_factory.hpp:74] Creating layer conv4
I0524 19:43:44.996016 35088 net.cpp:90] Creating Layer conv4
I0524 19:43:44.996023 35088 net.cpp:410] conv4 <- pool3
I0524 19:43:44.996031 35088 net.cpp:368] conv4 -> conv4
I0524 19:43:44.996040 35088 net.cpp:120] Setting up conv4
I0524 19:43:44.998987 35088 net.cpp:127] Top shape: 4 64 64 64 (1048576)
I0524 19:43:44.999002 35088 layer_factory.hpp:74] Creating layer conv4_bn
I0524 19:43:44.999013 35088 net.cpp:90] Creating Layer conv4_bn
I0524 19:43:44.999022 35088 net.cpp:410] conv4_bn <- conv4
I0524 19:43:44.999028 35088 net.cpp:357] conv4_bn -> conv4 (in-place)
I0524 19:43:44.999037 35088 net.cpp:120] Setting up conv4_bn
I0524 19:43:44.999065 35088 net.cpp:127] Top shape: 4 64 64 64 (1048576)
I0524 19:43:44.999084 35088 layer_factory.hpp:74] Creating layer relu4
I0524 19:43:44.999095 35088 net.cpp:90] Creating Layer relu4
I0524 19:43:44.999101 35088 net.cpp:410] relu4 <- conv4
I0524 19:43:44.999107 35088 net.cpp:357] relu4 -> conv4 (in-place)
I0524 19:43:44.999119 35088 net.cpp:120] Setting up relu4
I0524 19:43:44.999127 35088 net.cpp:127] Top shape: 4 64 64 64 (1048576)
I0524 19:43:44.999132 35088 layer_factory.hpp:74] Creating layer pool4
I0524 19:43:44.999140 35088 net.cpp:90] Creating Layer pool4
I0524 19:43:44.999155 35088 net.cpp:410] pool4 <- conv4
I0524 19:43:44.999161 35088 net.cpp:368] pool4 -> pool4
I0524 19:43:44.999171 35088 net.cpp:368] pool4 -> pool4_mask
I0524 19:43:44.999183 35088 net.cpp:120] Setting up pool4
I0524 19:43:44.999194 35088 net.cpp:127] Top shape: 4 64 32 32 (262144)
I0524 19:43:44.999203 35088 net.cpp:127] Top shape: 4 64 32 32 (262144)
I0524 19:43:44.999228 35088 layer_factory.hpp:74] Creating layer upsample4
I0524 19:43:44.999241 35088 net.cpp:90] Creating Layer upsample4
I0524 19:43:44.999248 35088 net.cpp:410] upsample4 <- pool4
I0524 19:43:44.999253 35088 net.cpp:410] upsample4 <- pool4_mask
I0524 19:43:44.999261 35088 net.cpp:368] upsample4 -> upsample4
I0524 19:43:44.999279 35088 net.cpp:120] Setting up upsample4
I0524 19:43:44.999296 35088 net.cpp:127] Top shape: 4 64 64 64 (1048576)
I0524 19:43:44.999303 35088 layer_factory.hpp:74] Creating layer conv_decode4
I0524 19:43:44.999312 35088 net.cpp:90] Creating Layer conv_decode4
I0524 19:43:44.999320 35088 net.cpp:410] conv_decode4 <- upsample4
I0524 19:43:44.999328 35088 net.cpp:368] conv_decode4 -> conv_decode4
I0524 19:43:44.999337 35088 net.cpp:120] Setting up conv_decode4
I0524 19:43:45.002019 35088 net.cpp:127] Top shape: 4 64 64 64 (1048576)
I0524 19:43:45.002034 35088 layer_factory.hpp:74] Creating layer conv_decode4_bn
I0524 19:43:45.002043 35088 net.cpp:90] Creating Layer conv_decode4_bn
I0524 19:43:45.002048 35088 net.cpp:410] conv_decode4_bn <- conv_decode4
I0524 19:43:45.002058 35088 net.cpp:357] conv_decode4_bn -> conv_decode4 (in-place)
I0524 19:43:45.002073 35088 net.cpp:120] Setting up conv_decode4_bn
I0524 19:43:45.002107 35088 net.cpp:127] Top shape: 4 64 64 64 (1048576)
I0524 19:43:45.002118 35088 layer_factory.hpp:74] Creating layer upsample3
I0524 19:43:45.002126 35088 net.cpp:90] Creating Layer upsample3
I0524 19:43:45.002133 35088 net.cpp:410] upsample3 <- conv_decode4
I0524 19:43:45.002140 35088 net.cpp:410] upsample3 <- pool3_mask
I0524 19:43:45.002153 35088 net.cpp:368] upsample3 -> upsample3
I0524 19:43:45.002164 35088 net.cpp:120] Setting up upsample3
I0524 19:43:45.002171 35088 upsample_layer.cpp:31] Params 'pad_out_{}_' are deprecated. Please declare upsample height and width useing the upsample_h, upsample_w parameters.
I0524 19:43:45.002180 35088 net.cpp:127] Top shape: 4 64 128 128 (4194304)
I0524 19:43:45.002188 35088 layer_factory.hpp:74] Creating layer conv_decode3
I0524 19:43:45.002197 35088 net.cpp:90] Creating Layer conv_decode3
I0524 19:43:45.002203 35088 net.cpp:410] conv_decode3 <- upsample3
I0524 19:43:45.002218 35088 net.cpp:368] conv_decode3 -> conv_decode3
I0524 19:43:45.002226 35088 net.cpp:120] Setting up conv_decode3
I0524 19:43:45.005672 35088 net.cpp:127] Top shape: 4 64 128 128 (4194304)
I0524 19:43:45.005688 35088 layer_factory.hpp:74] Creating layer conv_decode3_bn
I0524 19:43:45.005698 35088 net.cpp:90] Creating Layer conv_decode3_bn
I0524 19:43:45.005703 35088 net.cpp:410] conv_decode3_bn <- conv_decode3
I0524 19:43:45.005712 35088 net.cpp:357] conv_decode3_bn -> conv_decode3 (in-place)
I0524 19:43:45.005720 35088 net.cpp:120] Setting up conv_decode3_bn
I0524 19:43:45.005795 35088 net.cpp:127] Top shape: 4 64 128 128 (4194304)
I0524 19:43:45.005811 35088 layer_factory.hpp:74] Creating layer upsample2
I0524 19:43:45.005820 35088 net.cpp:90] Creating Layer upsample2
I0524 19:43:45.005825 35088 net.cpp:410] upsample2 <- conv_decode3
I0524 19:43:45.005830 35088 net.cpp:410] upsample2 <- pool2_mask
I0524 19:43:45.005843 35088 net.cpp:368] upsample2 -> upsample2
I0524 19:43:45.005853 35088 net.cpp:120] Setting up upsample2
I0524 19:43:45.005861 35088 upsample_layer.cpp:31] Params 'pad_out_{}_' are deprecated. Please declare upsample height and width useing the upsample_h, upsample_w parameters.
I0524 19:43:45.005869 35088 net.cpp:127] Top shape: 4 64 256 256 (16777216)
I0524 19:43:45.005880 35088 layer_factory.hpp:74] Creating layer conv_decode2
I0524 19:43:45.005892 35088 net.cpp:90] Creating Layer conv_decode2
I0524 19:43:45.005897 35088 net.cpp:410] conv_decode2 <- upsample2
I0524 19:43:45.005913 35088 net.cpp:368] conv_decode2 -> conv_decode2
I0524 19:43:45.005925 35088 net.cpp:120] Setting up conv_decode2
I0524 19:43:45.008723 35088 net.cpp:127] Top shape: 4 64 256 256 (16777216)
I0524 19:43:45.008738 35088 layer_factory.hpp:74] Creating layer conv_decode2_bn
I0524 19:43:45.008745 35088 net.cpp:90] Creating Layer conv_decode2_bn
I0524 19:43:45.008766 35088 net.cpp:410] conv_decode2_bn <- conv_decode2
I0524 19:43:45.008785 35088 net.cpp:357] conv_decode2_bn -> conv_decode2 (in-place)
I0524 19:43:45.008796 35088 net.cpp:120] Setting up conv_decode2_bn
I0524 19:43:45.009007 35088 net.cpp:127] Top shape: 4 64 256 256 (16777216)
I0524 19:43:45.009021 35088 layer_factory.hpp:74] Creating layer upsample1
I0524 19:43:45.009028 35088 net.cpp:90] Creating Layer upsample1
I0524 19:43:45.009033 35088 net.cpp:410] upsample1 <- conv_decode2
I0524 19:43:45.009039 35088 net.cpp:410] upsample1 <- pool1_mask
I0524 19:43:45.009047 35088 net.cpp:368] upsample1 -> upsample1
I0524 19:43:45.009063 35088 net.cpp:120] Setting up upsample1
I0524 19:43:45.009070 35088 upsample_layer.cpp:31] Params 'pad_out_{}_' are deprecated. Please declare upsample height and width useing the upsample_h, upsample_w parameters.
I0524 19:43:45.009080 35088 net.cpp:127] Top shape: 4 64 512 512 (67108864)
I0524 19:43:45.009091 35088 layer_factory.hpp:74] Creating layer conv_decode1
I0524 19:43:45.009101 35088 net.cpp:90] Creating Layer conv_decode1
I0524 19:43:45.009106 35088 net.cpp:410] conv_decode1 <- upsample1
I0524 19:43:45.009121 35088 net.cpp:368] conv_decode1 -> conv_decode1
I0524 19:43:45.009135 35088 net.cpp:120] Setting up conv_decode1
I0524 19:43:45.012194 35088 net.cpp:127] Top shape: 4 64 512 512 (67108864)
I0524 19:43:45.012208 35088 layer_factory.hpp:74] Creating layer conv_decode1_bn
I0524 19:43:45.012218 35088 net.cpp:90] Creating Layer conv_decode1_bn
I0524 19:43:45.012225 35088 net.cpp:410] conv_decode1_bn <- conv_decode1
I0524 19:43:45.012233 35088 net.cpp:357] conv_decode1_bn -> conv_decode1 (in-place)
I0524 19:43:45.012243 35088 net.cpp:120] Setting up conv_decode1_bn
I0524 19:43:45.012933 35088 net.cpp:127] Top shape: 4 64 512 512 (67108864)
I0524 19:43:45.012945 35088 layer_factory.hpp:74] Creating layer conv_classifier
I0524 19:43:45.012953 35088 net.cpp:90] Creating Layer conv_classifier
I0524 19:43:45.012959 35088 net.cpp:410] conv_classifier <- conv_decode1
I0524 19:43:45.012969 35088 net.cpp:368] conv_classifier -> conv_classifier
I0524 19:43:45.012979 35088 net.cpp:120] Setting up conv_classifier
I0524 19:43:45.013375 35088 net.cpp:127] Top shape: 4 2 512 512 (2097152)
I0524 19:43:45.013393 35088 layer_factory.hpp:74] Creating layer conv_classifier_conv_classifier_0_split
I0524 19:43:45.013409 35088 net.cpp:90] Creating Layer conv_classifier_conv_classifier_0_split
I0524 19:43:45.013415 35088 net.cpp:410] conv_classifier_conv_classifier_0_split <- conv_classifier
I0524 19:43:45.013422 35088 net.cpp:368] conv_classifier_conv_classifier_0_split -> conv_classifier_conv_classifier_0_split_0
I0524 19:43:45.013432 35088 net.cpp:368] conv_classifier_conv_classifier_0_split -> conv_classifier_conv_classifier_0_split_1
I0524 19:43:45.013447 35088 net.cpp:120] Setting up conv_classifier_conv_classifier_0_split
I0524 19:43:45.013458 35088 net.cpp:127] Top shape: 4 2 512 512 (2097152)
I0524 19:43:45.013468 35088 net.cpp:127] Top shape: 4 2 512 512 (2097152)
I0524 19:43:45.013475 35088 layer_factory.hpp:74] Creating layer loss
I0524 19:43:45.013489 35088 net.cpp:90] Creating Layer loss
I0524 19:43:45.013495 35088 net.cpp:410] loss <- conv_classifier_conv_classifier_0_split_0
I0524 19:43:45.013501 35088 net.cpp:410] loss <- label_data_1_split_0
I0524 19:43:45.013512 35088 net.cpp:368] loss -> loss
I0524 19:43:45.013531 35088 net.cpp:120] Setting up loss
I0524 19:43:45.013542 35088 layer_factory.hpp:74] Creating layer loss
I0524 19:43:45.015836 35088 net.cpp:127] Top shape: (1)
I0524 19:43:45.015848 35088 net.cpp:129]     with loss weight 1
I0524 19:43:45.015874 35088 layer_factory.hpp:74] Creating layer accuracy
I0524 19:43:45.015883 35088 net.cpp:90] Creating Layer accuracy
I0524 19:43:45.015889 35088 net.cpp:410] accuracy <- conv_classifier_conv_classifier_0_split_1
I0524 19:43:45.015897 35088 net.cpp:410] accuracy <- label_data_1_split_1
I0524 19:43:45.015903 35088 net.cpp:368] accuracy -> accuracy
I0524 19:43:45.015913 35088 net.cpp:368] accuracy -> per_class_accuracy
I0524 19:43:45.015936 35088 net.cpp:120] Setting up accuracy
I0524 19:43:45.015944 35088 accuracy_layer.cpp:24] Per-class accuracies currently only work on TRAIN phase only.
I0524 19:43:45.015951 35088 net.cpp:127] Top shape: (1)
I0524 19:43:45.015959 35088 net.cpp:127] Top shape: 2 1 1 1 (2)
I0524 19:43:45.015969 35088 net.cpp:194] accuracy does not need backward computation.
I0524 19:43:45.015980 35088 net.cpp:192] loss needs backward computation.
I0524 19:43:45.015992 35088 net.cpp:192] conv_classifier_conv_classifier_0_split needs backward computation.
I0524 19:43:45.015997 35088 net.cpp:192] conv_classifier needs backward computation.
I0524 19:43:45.016002 35088 net.cpp:192] conv_decode1_bn needs backward computation.
…
