…
snapshot_prefix: "/home/caohao/SegNet/Models/Training/segnet_basic"
solver_mode: CPU
net: "/home/caohao/SegNet/Models/segnet_basic_train.prototxt"
test_initialization: false
I0519 02:04:10.667855 17069 solver.cpp:70] Creating training net from net file: /home/caohao/SegNet/Models/segnet_basic_train.prototxt
I0519 02:04:10.668431 17069 net.cpp:42] Initializing net from parameters: 
name: "segnet"
state {
  phase: TRAIN
}
layer {
  name: "data"
  type: "DenseImageData"
  top: "data"
  top: "label"
  dense_image_data_param {
    source: "/home/caohao/SegNet/CamVid/train.txt"
    batch_size: 4
    shuffle: false
  }
}
layer {
  name: "norm"
  type: "LRN"
  bottom: "data"
  top: "norm"
  lrn_param {
    local_size: 5
    alpha: 0.0001
    beta: 0.75
  }
}
layer {
  name: "conv1"
  type: "Convolution"
  bottom: "norm"
  top: "conv1"
  param {
    lr_mult: 1
    decay_mult: 1
  }
  param {
    lr_mult: 2
    decay_mult: 0
  }
  convolution_param {
    num_output: 64
    pad: 3
    kernel_size: 7
    weight_filler {
      type: "msra"
    }
    bias_filler {
      type: "constant"
    }
  }
}
layer {
  name: "conv1_bn"
  type: "BN"
  bottom: "conv1"
  top: "conv1"
  bn_param {
    scale_filler {
      type: "constant"
      value: 1
    }
    shift_filler {
      type: "constant"
      value: 0.001
    }
  }
}
layer {
  name: "relu1"
  type: "ReLU"
  bottom: "conv1"
  top: "conv1"
}
layer {
  name: "pool1"
  type: "Pooling"
  bottom: "conv1"
  top: "pool1"
  top: "pool1_mask"
  pooling_param {
    pool: MAX
    kernel_size: 2
    stride: 2
  }
}
layer {
  name: "conv2"
  type: "Convolution"
  bottom: "pool1"
  top: "conv2"
  param {
    lr_mult: 1
    decay_mult: 1
  }
  param {
    lr_mult: 2
    decay_mult: 0
  }
  convolution_param {
    num_output: 64
    pad: 3
    kernel_size: 7
    weight_filler {
      type: "msra"
    }
    bias_filler {
      type: "constant"
    }
  }
}
layer {
  name: "conv2_bn"
  type: "BN"
  bottom: "conv2"
  top: "conv2"
  bn_param {
    scale_filler {
      type: "constant"
      value: 1
    }
    shift_filler {
      type: "constant"
      value: 0.001
    }
  }
}
layer {
  name: "relu2"
  type: "ReLU"
  bottom: "conv2"
  top: "conv2"
}
layer {
  name: "pool2"
  type: "Pooling"
  bottom: "conv2"
  top: "pool2"
  top: "pool2_mask"
  pooling_param {
    pool: MAX
    kernel_size: 2
    stride: 2
  }
}
layer {
  name: "conv3"
  type: "Convolution"
  bottom: "pool2"
  top: "conv3"
  param {
    lr_mult: 1
    decay_mult: 1
  }
  param {
    lr_mult: 2
    decay_mult: 0
  }
  convolution_param {
    num_output: 64
    pad: 3
    kernel_size: 7
    weight_filler {
      type: "msra"
    }
    bias_filler {
      type: "constant"
    }
  }
}
layer {
  name: "conv3_bn"
  type: "BN"
  bottom: "conv3"
  top: "conv3"
  bn_param {
    scale_filler {
      type: "constant"
      value: 1
    }
    shift_filler {
      type: "constant"
      value: 0.001
    }
  }
}
layer {
  name: "relu3"
  type: "ReLU"
  bottom: "conv3"
  top: "conv3"
}
layer {
  name: "pool3"
  type: "Pooling"
  bottom: "conv3"
  top: "pool3"
  top: "pool3_mask"
  pooling_param {
    pool: MAX
    kernel_size: 2
    stride: 2
  }
}
layer {
  name: "conv4"
  type: "Convolution"
  bottom: "pool3"
  top: "conv4"
  param {
    lr_mult: 1
    decay_mult: 1
  }
  param {
    lr_mult: 2
    decay_mult: 0
  }
  convolution_param {
    num_output: 64
    pad: 3
    kernel_size: 7
    weight_filler {
      type: "msra"
    }
    bias_filler {
      type: "constant"
    }
  }
}
layer {
  name: "conv4_bn"
  type: "BN"
  bottom: "conv4"
  top: "conv4"
  bn_param {
    scale_filler {
      type: "constant"
      value: 1
    }
    shift_filler {
      type: "constant"
      value: 0.001
    }
  }
}
layer {
  name: "relu4"
  type: "ReLU"
  bottom: "conv4"
  top: "conv4"
}
layer {
  name: "pool4"
  type: "Pooling"
  bottom: "conv4"
  top: "pool4"
  top: "pool4_mask"
  pooling_param {
    pool: MAX
    kernel_size: 2
    stride: 2
  }
}
layer {
  name: "upsample4"
  type: "Upsample"
  bottom: "pool4"
  bottom: "pool4_mask"
  top: "upsample4"
  upsample_param {
    scale: 2
    pad_out_h: true
    upsample_h: 64
    upsample_w: 64
  }
}
layer {
  name: "conv_decode4"
  type: "Convolution"
  bottom: "upsample4"
  top: "conv_decode4"
  param {
    lr_mult: 1
    decay_mult: 1
  }
  param {
    lr_mult: 2
    decay_mult: 0
  }
  convolution_param {
    num_output: 64
    pad: 3
    kernel_size: 7
    weight_filler {
      type: "msra"
    }
    bias_filler {
      type: "constant"
    }
  }
}
layer {
  name: "conv_decode4_bn"
  type: "BN"
  bottom: "conv_decode4"
  top: "conv_decode4"
  bn_param {
    scale_filler {
      type: "constant"
      value: 1
    }
    shift_filler {
      type: "constant"
      value: 0.001
    }
  }
}
layer {
  name: "upsample3"
  type: "Upsample"
  bottom: "conv_decode4"
  bottom: "pool3_mask"
  top: "upsample3"
  upsample_param {
    scale: 2
  }
}
layer {
  name: "conv_decode3"
  type: "Convolution"
  bottom: "upsample3"
  top: "conv_decode3"
  param {
    lr_mult: 1
    decay_mult: 1
  }
  param {
    lr_mult: 2
    decay_mult: 0
  }
  convolution_param {
    num_output: 64
    pad: 3
    kernel_size: 7
    weight_filler {
      type: "msra"
    }
    bias_filler {
      type: "constant"
    }
  }
}
layer {
  name: "conv_decode3_bn"
  type: "BN"
  bottom: "conv_decode3"
  top: "conv_decode3"
  bn_param {
    scale_filler {
      type: "constant"
      value: 1
    }
    shift_filler {
      type: "constant"
      value: 0.001
    }
  }
}
layer {
  name: "upsample2"
  type: "Upsample"
  bottom: "conv_decode3"
  bottom: "pool2_mask"
  top: "upsample2"
  upsample_param {
    scale: 2
  }
}
layer {
  name: "conv_decode2"
  type: "Convolution"
  bottom: "upsample2"
  top: "conv_decode2"
  param {
    lr_mult: 1
    decay_mult: 1
  }
  param {
    lr_mult: 2
    decay_mult: 0
  }
  convolution_param {
    num_output: 64
    pad: 3
    kernel_size: 7
    weight_filler {
      type: "msra"
    }
    bias_filler {
      type: "constant"
    }
  }
}
layer {
  name: "conv_decode2_bn"
  type: "BN"
  bottom: "conv_decode2"
  top: "conv_decode2"
  bn_param {
    scale_filler {
      type: "constant"
      value: 1
    }
    shift_filler {
      type: "constant"
      value: 0.001
    }
  }
}
layer {
  name: "upsample1"
  type: "Upsample"
  bottom: "conv_decode2"
  bottom: "pool1_mask"
  top: "upsample1"
  upsample_param {
    scale: 2
  }
}
layer {
  name: "conv_decode1"
  type: "Convolution"
  bottom: "upsample1"
  top: "conv_decode1"
  param {
    lr_mult: 1
    decay_mult: 1
  }
  param {
    lr_mult: 2
    decay_mult: 0
  }
  convolution_param {
    num_output: 64
    pad: 3
    kernel_size: 7
    weight_filler {
      type: "msra"
    }
    bias_filler {
      type: "constant"
    }
  }
}
layer {
  name: "conv_decode1_bn"
  type: "BN"
  bottom: "conv_decode1"
  top: "conv_decode1"
  bn_param {
    scale_filler {
      type: "constant"
      value: 1
    }
    shift_filler {
      type: "constant"
      value: 0.001
    }
  }
}
layer {
  name: "conv_classifier"
  type: "Convolution"
  bottom: "conv_decode1"
  top: "conv_classifier"
  param {
    lr_mult: 1
    decay_mult: 1
  }
  param {
    lr_mult: 2
    decay_mult: 0
  }
  convolution_param {
    num_output: 2
    kernel_size: 1
    weight_filler {
      type: "msra"
    }
    bias_filler {
      type: "constant"
    }
  }
}
layer {
  name: "loss"
  type: "SoftmaxWithLoss"
  bottom: "conv_classifier"
  bottom: "label"
  top: "loss"
  loss_weight: 1
  softmax_param {
    engine: CAFFE
  }
}
layer {
  name: "accuracy"
  type: "Accuracy"
  bottom: "conv_classifier"
  bottom: "label"
  top: "accuracy"
  top: "per_class_accuracy"
}
I0519 02:04:10.668612 17069 layer_factory.hpp:74] Creating layer data
I0519 02:04:10.668629 17069 net.cpp:90] Creating Layer data
I0519 02:04:10.668642 17069 net.cpp:368] data -> data
I0519 02:04:10.668673 17069 net.cpp:368] data -> label
I0519 02:04:10.668689 17069 net.cpp:120] Setting up data
I0519 02:04:10.668704 17069 dense_image_data_layer.cpp:41] Opening file /home/caohao/SegNet/CamVid/train.txt
I0519 02:04:10.668840 17069 dense_image_data_layer.cpp:56] A total of 80 examples.
I0519 02:04:10.672003 17069 dense_image_data_layer.cpp:109] output data size: 4,3,512,512
I0519 02:04:10.672144 17069 net.cpp:127] Top shape: 4 3 512 512 (3145728)
I0519 02:04:10.672158 17069 net.cpp:127] Top shape: 4 1 512 512 (1048576)
I0519 02:04:10.672165 17069 layer_factory.hpp:74] Creating layer label_data_1_split
I0519 02:04:10.672191 17069 net.cpp:90] Creating Layer label_data_1_split
I0519 02:04:10.672199 17069 net.cpp:410] label_data_1_split <- label
I0519 02:04:10.672210 17069 net.cpp:368] label_data_1_split -> label_data_1_split_0
I0519 02:04:10.672221 17069 net.cpp:368] label_data_1_split -> label_data_1_split_1
I0519 02:04:10.672230 17069 net.cpp:120] Setting up label_data_1_split
I0519 02:04:10.672238 17069 net.cpp:127] Top shape: 4 1 512 512 (1048576)
I0519 02:04:10.672245 17069 net.cpp:127] Top shape: 4 1 512 512 (1048576)
I0519 02:04:10.672250 17069 layer_factory.hpp:74] Creating layer norm
I0519 02:04:10.672258 17069 net.cpp:90] Creating Layer norm
I0519 02:04:10.672266 17069 net.cpp:410] norm <- data
I0519 02:04:10.672271 17069 net.cpp:368] norm -> norm
I0519 02:04:10.672281 17069 net.cpp:120] Setting up norm
I0519 02:04:10.672289 17069 net.cpp:127] Top shape: 4 3 512 512 (3145728)
I0519 02:04:10.672296 17069 layer_factory.hpp:74] Creating layer conv1
I0519 02:04:10.672303 17069 net.cpp:90] Creating Layer conv1
I0519 02:04:10.672307 17069 net.cpp:410] conv1 <- norm
I0519 02:04:10.672314 17069 net.cpp:368] conv1 -> conv1
I0519 02:04:10.672324 17069 net.cpp:120] Setting up conv1
I0519 02:04:10.673182 17069 net.cpp:127] Top shape: 4 64 512 512 (67108864)
I0519 02:04:10.673207 17069 layer_factory.hpp:74] Creating layer conv1_bn
I0519 02:04:10.673221 17069 net.cpp:90] Creating Layer conv1_bn
I0519 02:04:10.673231 17069 net.cpp:410] conv1_bn <- conv1
I0519 02:04:10.673241 17069 net.cpp:357] conv1_bn -> conv1 (in-place)
I0519 02:04:10.673257 17069 net.cpp:120] Setting up conv1_bn
I0519 02:04:10.674019 17069 net.cpp:127] Top shape: 4 64 512 512 (67108864)
I0519 02:04:10.674033 17069 layer_factory.hpp:74] Creating layer relu1
I0519 02:04:10.674041 17069 net.cpp:90] Creating Layer relu1
I0519 02:04:10.674047 17069 net.cpp:410] relu1 <- conv1
I0519 02:04:10.674053 17069 net.cpp:357] relu1 -> conv1 (in-place)
I0519 02:04:10.674060 17069 net.cpp:120] Setting up relu1
I0519 02:04:10.674067 17069 net.cpp:127] Top shape: 4 64 512 512 (67108864)
I0519 02:04:10.674070 17069 layer_factory.hpp:74] Creating layer pool1
I0519 02:04:10.674077 17069 net.cpp:90] Creating Layer pool1
I0519 02:04:10.674082 17069 net.cpp:410] pool1 <- conv1
I0519 02:04:10.674088 17069 net.cpp:368] pool1 -> pool1
I0519 02:04:10.674104 17069 net.cpp:368] pool1 -> pool1_mask
I0519 02:04:10.674118 17069 net.cpp:120] Setting up pool1
I0519 02:04:10.674139 17069 net.cpp:127] Top shape: 4 64 256 256 (16777216)
I0519 02:04:10.674147 17069 net.cpp:127] Top shape: 4 64 256 256 (16777216)
I0519 02:04:10.674154 17069 layer_factory.hpp:74] Creating layer conv2
I0519 02:04:10.674165 17069 net.cpp:90] Creating Layer conv2
I0519 02:04:10.674173 17069 net.cpp:410] conv2 <- pool1
I0519 02:04:10.674187 17069 net.cpp:368] conv2 -> conv2
I0519 02:04:10.674201 17069 net.cpp:120] Setting up conv2
I0519 02:04:10.677021 17069 net.cpp:127] Top shape: 4 64 256 256 (16777216)
I0519 02:04:10.677037 17069 layer_factory.hpp:74] Creating layer conv2_bn
I0519 02:04:10.677053 17069 net.cpp:90] Creating Layer conv2_bn
I0519 02:04:10.677062 17069 net.cpp:410] conv2_bn <- conv2
I0519 02:04:10.677074 17069 net.cpp:357] conv2_bn -> conv2 (in-place)
I0519 02:04:10.677085 17069 net.cpp:120] Setting up conv2_bn
I0519 02:04:10.677305 17069 net.cpp:127] Top shape: 4 64 256 256 (16777216)
I0519 02:04:10.677320 17069 layer_factory.hpp:74] Creating layer relu2
I0519 02:04:10.677327 17069 net.cpp:90] Creating Layer relu2
I0519 02:04:10.677350 17069 net.cpp:410] relu2 <- conv2
I0519 02:04:10.677366 17069 net.cpp:357] relu2 -> conv2 (in-place)
I0519 02:04:10.677378 17069 net.cpp:120] Setting up relu2
I0519 02:04:10.677392 17069 net.cpp:127] Top shape: 4 64 256 256 (16777216)
I0519 02:04:10.677399 17069 layer_factory.hpp:74] Creating layer pool2
I0519 02:04:10.677412 17069 net.cpp:90] Creating Layer pool2
I0519 02:04:10.677420 17069 net.cpp:410] pool2 <- conv2
I0519 02:04:10.677433 17069 net.cpp:368] pool2 -> pool2
I0519 02:04:10.677443 17069 net.cpp:368] pool2 -> pool2_mask
I0519 02:04:10.677451 17069 net.cpp:120] Setting up pool2
I0519 02:04:10.677461 17069 net.cpp:127] Top shape: 4 64 128 128 (4194304)
I0519 02:04:10.677469 17069 net.cpp:127] Top shape: 4 64 128 128 (4194304)
I0519 02:04:10.677474 17069 layer_factory.hpp:74] Creating layer conv3
I0519 02:04:10.677486 17069 net.cpp:90] Creating Layer conv3
I0519 02:04:10.677495 17069 net.cpp:410] conv3 <- pool2
I0519 02:04:10.677511 17069 net.cpp:368] conv3 -> conv3
I0519 02:04:10.677523 17069 net.cpp:120] Setting up conv3
I0519 02:04:10.680264 17069 net.cpp:127] Top shape: 4 64 128 128 (4194304)
I0519 02:04:10.680284 17069 layer_factory.hpp:74] Creating layer conv3_bn
I0519 02:04:10.680301 17069 net.cpp:90] Creating Layer conv3_bn
I0519 02:04:10.680310 17069 net.cpp:410] conv3_bn <- conv3
I0519 02:04:10.680321 17069 net.cpp:357] conv3_bn -> conv3 (in-place)
I0519 02:04:10.680331 17069 net.cpp:120] Setting up conv3_bn
I0519 02:04:10.680439 17069 net.cpp:127] Top shape: 4 64 128 128 (4194304)
I0519 02:04:10.680454 17069 layer_factory.hpp:74] Creating layer relu3
I0519 02:04:10.680461 17069 net.cpp:90] Creating Layer relu3
I0519 02:04:10.680467 17069 net.cpp:410] relu3 <- conv3
I0519 02:04:10.680475 17069 net.cpp:357] relu3 -> conv3 (in-place)
I0519 02:04:10.680483 17069 net.cpp:120] Setting up relu3
I0519 02:04:10.680491 17069 net.cpp:127] Top shape: 4 64 128 128 (4194304)
I0519 02:04:10.680496 17069 layer_factory.hpp:74] Creating layer pool3
I0519 02:04:10.680503 17069 net.cpp:90] Creating Layer pool3
I0519 02:04:10.680512 17069 net.cpp:410] pool3 <- conv3
I0519 02:04:10.680528 17069 net.cpp:368] pool3 -> pool3
I0519 02:04:10.680541 17069 net.cpp:368] pool3 -> pool3_mask
I0519 02:04:10.680553 17069 net.cpp:120] Setting up pool3
I0519 02:04:10.680568 17069 net.cpp:127] Top shape: 4 64 64 64 (1048576)
I0519 02:04:10.680577 17069 net.cpp:127] Top shape: 4 64 64 64 (1048576)
I0519 02:04:10.680586 17069 layer_factory.hpp:74] Creating layer conv4
I0519 02:04:10.680603 17069 net.cpp:90] Creating Layer conv4
I0519 02:04:10.680611 17069 net.cpp:410] conv4 <- pool3
I0519 02:04:10.680625 17069 net.cpp:368] conv4 -> conv4
I0519 02:04:10.680637 17069 net.cpp:120] Setting up conv4
I0519 02:04:10.683607 17069 net.cpp:127] Top shape: 4 64 64 64 (1048576)
I0519 02:04:10.683622 17069 layer_factory.hpp:74] Creating layer conv4_bn
I0519 02:04:10.683640 17069 net.cpp:90] Creating Layer conv4_bn
I0519 02:04:10.683647 17069 net.cpp:410] conv4_bn <- conv4
I0519 02:04:10.683656 17069 net.cpp:357] conv4_bn -> conv4 (in-place)
I0519 02:04:10.683668 17069 net.cpp:120] Setting up conv4_bn
I0519 02:04:10.683706 17069 net.cpp:127] Top shape: 4 64 64 64 (1048576)
I0519 02:04:10.683718 17069 layer_factory.hpp:74] Creating layer relu4
I0519 02:04:10.683732 17069 net.cpp:90] Creating Layer relu4
I0519 02:04:10.683742 17069 net.cpp:410] relu4 <- conv4
I0519 02:04:10.683753 17069 net.cpp:357] relu4 -> conv4 (in-place)
I0519 02:04:10.683764 17069 net.cpp:120] Setting up relu4
I0519 02:04:10.683776 17069 net.cpp:127] Top shape: 4 64 64 64 (1048576)
I0519 02:04:10.683785 17069 layer_factory.hpp:74] Creating layer pool4
I0519 02:04:10.683797 17069 net.cpp:90] Creating Layer pool4
I0519 02:04:10.683809 17069 net.cpp:410] pool4 <- conv4
I0519 02:04:10.683820 17069 net.cpp:368] pool4 -> pool4
I0519 02:04:10.683833 17069 net.cpp:368] pool4 -> pool4_mask
I0519 02:04:10.683851 17069 net.cpp:120] Setting up pool4
I0519 02:04:10.683864 17069 net.cpp:127] Top shape: 4 64 32 32 (262144)
I0519 02:04:10.683876 17069 net.cpp:127] Top shape: 4 64 32 32 (262144)
I0519 02:04:10.683897 17069 layer_factory.hpp:74] Creating layer upsample4
I0519 02:04:10.683912 17069 net.cpp:90] Creating Layer upsample4
I0519 02:04:10.683920 17069 net.cpp:410] upsample4 <- pool4
I0519 02:04:10.683931 17069 net.cpp:410] upsample4 <- pool4_mask
I0519 02:04:10.683943 17069 net.cpp:368] upsample4 -> upsample4
I0519 02:04:10.683962 17069 net.cpp:120] Setting up upsample4
I0519 02:04:10.683979 17069 net.cpp:127] Top shape: 4 64 64 64 (1048576)
I0519 02:04:10.683986 17069 layer_factory.hpp:74] Creating layer conv_decode4
I0519 02:04:10.684001 17069 net.cpp:90] Creating Layer conv_decode4
I0519 02:04:10.684010 17069 net.cpp:410] conv_decode4 <- upsample4
I0519 02:04:10.684026 17069 net.cpp:368] conv_decode4 -> conv_decode4
I0519 02:04:10.684037 17069 net.cpp:120] Setting up conv_decode4
I0519 02:04:10.686858 17069 net.cpp:127] Top shape: 4 64 64 64 (1048576)
I0519 02:04:10.686877 17069 layer_factory.hpp:74] Creating layer conv_decode4_bn
I0519 02:04:10.686892 17069 net.cpp:90] Creating Layer conv_decode4_bn
I0519 02:04:10.686900 17069 net.cpp:410] conv_decode4_bn <- conv_decode4
I0519 02:04:10.686916 17069 net.cpp:357] conv_decode4_bn -> conv_decode4 (in-place)
I0519 02:04:10.686928 17069 net.cpp:120] Setting up conv_decode4_bn
I0519 02:04:10.686961 17069 net.cpp:127] Top shape: 4 64 64 64 (1048576)
I0519 02:04:10.686974 17069 layer_factory.hpp:74] Creating layer upsample3
I0519 02:04:10.686986 17069 net.cpp:90] Creating Layer upsample3
I0519 02:04:10.686995 17069 net.cpp:410] upsample3 <- conv_decode4
I0519 02:04:10.687006 17069 net.cpp:410] upsample3 <- pool3_mask
I0519 02:04:10.687021 17069 net.cpp:368] upsample3 -> upsample3
I0519 02:04:10.687032 17069 net.cpp:120] Setting up upsample3
I0519 02:04:10.687038 17069 upsample_layer.cpp:31] Params 'pad_out_{}_' are deprecated. Please declare upsample height and width useing the upsample_h, upsample_w parameters.
I0519 02:04:10.687047 17069 net.cpp:127] Top shape: 4 64 128 128 (4194304)
I0519 02:04:10.687052 17069 layer_factory.hpp:74] Creating layer conv_decode3
I0519 02:04:10.687062 17069 net.cpp:90] Creating Layer conv_decode3
I0519 02:04:10.687069 17069 net.cpp:410] conv_decode3 <- upsample3
I0519 02:04:10.687085 17069 net.cpp:368] conv_decode3 -> conv_decode3
I0519 02:04:10.687098 17069 net.cpp:120] Setting up conv_decode3
I0519 02:04:10.689808 17069 net.cpp:127] Top shape: 4 64 128 128 (4194304)
I0519 02:04:10.689824 17069 layer_factory.hpp:74] Creating layer conv_decode3_bn
I0519 02:04:10.689841 17069 net.cpp:90] Creating Layer conv_decode3_bn
I0519 02:04:10.689848 17069 net.cpp:410] conv_decode3_bn <- conv_decode3
I0519 02:04:10.689863 17069 net.cpp:357] conv_decode3_bn -> conv_decode3 (in-place)
I0519 02:04:10.689874 17069 net.cpp:120] Setting up conv_decode3_bn
I0519 02:04:10.689949 17069 net.cpp:127] Top shape: 4 64 128 128 (4194304)
I0519 02:04:10.689966 17069 layer_factory.hpp:74] Creating layer upsample2
I0519 02:04:10.689980 17069 net.cpp:90] Creating Layer upsample2
I0519 02:04:10.689988 17069 net.cpp:410] upsample2 <- conv_decode3
I0519 02:04:10.689999 17069 net.cpp:410] upsample2 <- pool2_mask
I0519 02:04:10.690014 17069 net.cpp:368] upsample2 -> upsample2
I0519 02:04:10.690026 17069 net.cpp:120] Setting up upsample2
I0519 02:04:10.690035 17069 upsample_layer.cpp:31] Params 'pad_out_{}_' are deprecated. Please declare upsample height and width useing the upsample_h, upsample_w parameters.
I0519 02:04:10.690049 17069 net.cpp:127] Top shape: 4 64 256 256 (16777216)
I0519 02:04:10.690058 17069 layer_factory.hpp:74] Creating layer conv_decode2
I0519 02:04:10.690073 17069 net.cpp:90] Creating Layer conv_decode2
I0519 02:04:10.690083 17069 net.cpp:410] conv_decode2 <- upsample2
I0519 02:04:10.690093 17069 net.cpp:368] conv_decode2 -> conv_decode2
I0519 02:04:10.690104 17069 net.cpp:120] Setting up conv_decode2
I0519 02:04:10.692886 17069 net.cpp:127] Top shape: 4 64 256 256 (16777216)
I0519 02:04:10.692901 17069 layer_factory.hpp:74] Creating layer conv_decode2_bn
I0519 02:04:10.692916 17069 net.cpp:90] Creating Layer conv_decode2_bn
I0519 02:04:10.692937 17069 net.cpp:410] conv_decode2_bn <- conv_decode2
I0519 02:04:10.692955 17069 net.cpp:357] conv_decode2_bn -> conv_decode2 (in-place)
I0519 02:04:10.692965 17069 net.cpp:120] Setting up conv_decode2_bn
I0519 02:04:10.693177 17069 net.cpp:127] Top shape: 4 64 256 256 (16777216)
I0519 02:04:10.693192 17069 layer_factory.hpp:74] Creating layer upsample1
I0519 02:04:10.693205 17069 net.cpp:90] Creating Layer upsample1
I0519 02:04:10.693214 17069 net.cpp:410] upsample1 <- conv_decode2
I0519 02:04:10.693225 17069 net.cpp:410] upsample1 <- pool1_mask
I0519 02:04:10.693240 17069 net.cpp:368] upsample1 -> upsample1
I0519 02:04:10.693253 17069 net.cpp:120] Setting up upsample1
I0519 02:04:10.693262 17069 upsample_layer.cpp:31] Params 'pad_out_{}_' are deprecated. Please declare upsample height and width useing the upsample_h, upsample_w parameters.
I0519 02:04:10.693276 17069 net.cpp:127] Top shape: 4 64 512 512 (67108864)
I0519 02:04:10.693284 17069 layer_factory.hpp:74] Creating layer conv_decode1
I0519 02:04:10.693295 17069 net.cpp:90] Creating Layer conv_decode1
I0519 02:04:10.693302 17069 net.cpp:410] conv_decode1 <- upsample1
I0519 02:04:10.693320 17069 net.cpp:368] conv_decode1 -> conv_decode1
I0519 02:04:10.693331 17069 net.cpp:120] Setting up conv_decode1
I0519 02:04:10.696893 17069 net.cpp:127] Top shape: 4 64 512 512 (67108864)
I0519 02:04:10.696908 17069 layer_factory.hpp:74] Creating layer conv_decode1_bn
I0519 02:04:10.696925 17069 net.cpp:90] Creating Layer conv_decode1_bn
I0519 02:04:10.696933 17069 net.cpp:410] conv_decode1_bn <- conv_decode1
I0519 02:04:10.696945 17069 net.cpp:357] conv_decode1_bn -> conv_decode1 (in-place)
I0519 02:04:10.696956 17069 net.cpp:120] Setting up conv_decode1_bn
I0519 02:04:10.697655 17069 net.cpp:127] Top shape: 4 64 512 512 (67108864)
I0519 02:04:10.697667 17069 layer_factory.hpp:74] Creating layer conv_classifier
I0519 02:04:10.697675 17069 net.cpp:90] Creating Layer conv_classifier
I0519 02:04:10.697680 17069 net.cpp:410] conv_classifier <- conv_decode1
I0519 02:04:10.697688 17069 net.cpp:368] conv_classifier -> conv_classifier
I0519 02:04:10.697696 17069 net.cpp:120] Setting up conv_classifier
I0519 02:04:10.698089 17069 net.cpp:127] Top shape: 4 2 512 512 (2097152)
I0519 02:04:10.698108 17069 layer_factory.hpp:74] Creating layer conv_classifier_conv_classifier_0_split
I0519 02:04:10.698122 17069 net.cpp:90] Creating Layer conv_classifier_conv_classifier_0_split
I0519 02:04:10.698127 17069 net.cpp:410] conv_classifier_conv_classifier_0_split <- conv_classifier
I0519 02:04:10.698133 17069 net.cpp:368] conv_classifier_conv_classifier_0_split -> conv_classifier_conv_classifier_0_split_0
I0519 02:04:10.698143 17069 net.cpp:368] conv_classifier_conv_classifier_0_split -> conv_classifier_conv_classifier_0_split_1
I0519 02:04:10.698151 17069 net.cpp:120] Setting up conv_classifier_conv_classifier_0_split
I0519 02:04:10.698163 17069 net.cpp:127] Top shape: 4 2 512 512 (2097152)
I0519 02:04:10.698173 17069 net.cpp:127] Top shape: 4 2 512 512 (2097152)
I0519 02:04:10.698184 17069 layer_factory.hpp:74] Creating layer loss
I0519 02:04:10.698197 17069 net.cpp:90] Creating Layer loss
I0519 02:04:10.698205 17069 net.cpp:410] loss <- conv_classifier_conv_classifier_0_split_0
I0519 02:04:10.698217 17069 net.cpp:410] loss <- label_data_1_split_0
I0519 02:04:10.698232 17069 net.cpp:368] loss -> loss
I0519 02:04:10.698251 17069 net.cpp:120] Setting up loss
I0519 02:04:10.698269 17069 layer_factory.hpp:74] Creating layer loss
I0519 02:04:10.700541 17069 net.cpp:127] Top shape: (1)
I0519 02:04:10.700553 17069 net.cpp:129]     with loss weight 1
I0519 02:04:10.700590 17069 layer_factory.hpp:74] Creating layer accuracy
I0519 02:04:10.700599 17069 net.cpp:90] Creating Layer accuracy
I0519 02:04:10.700604 17069 net.cpp:410] accuracy <- conv_classifier_conv_classifier_0_split_1
I0519 02:04:10.700611 17069 net.cpp:410] accuracy <- label_data_1_split_1
I0519 02:04:10.700618 17069 net.cpp:368] accuracy -> accuracy
I0519 02:04:10.700629 17069 net.cpp:368] accuracy -> per_class_accuracy
I0519 02:04:10.700671 17069 net.cpp:120] Setting up accuracy
I0519 02:04:10.700681 17069 accuracy_layer.cpp:24] Per-class accuracies currently only work on TRAIN phase only.
I0519 02:04:10.700693 17069 net.cpp:127] Top shape: (1)
I0519 02:04:10.700702 17069 net.cpp:127] Top shape: 2 1 1 1 (2)
I0519 02:04:10.700708 17069 net.cpp:194] accuracy does not need backward computation.
I0519 02:04:10.700717 17069 net.cpp:192] loss needs backward computation.
I0519 02:04:10.700728 17069 net.cpp:192] conv_classifier_conv_classifier_0_split needs backward computation.
I0519 02:04:10.700738 17069 net.cpp:192] conv_classifier needs backward computation.
I0519 02:04:10.700747 17069 net.cpp:192] conv_decode1_bn needs backward computation.
…
